tests/data/H2O_weights.npz (npz, 17800 bytes, 11 tensors)

blocks/0/values f8 [4, 1, 4]
-0.19901717257969515 0.42731324666701476 -0.530938446848568 0.19807460813255448 0.1606962284772367 0.09584640119299745 0.022426266519721953 -0.07145873486175591
0.04764192515334752 -0.05996910104351177 0.1087167543760154 -0.0073362675023000284 0.005250444923410542 0.05442100192873485 -0.04101291314773873 -0.03400302489615466
00000000: 263d c90b 6579 c9bf 3246 e5a8 1959 db3f
00000010: 91ea 2ca0 72fd e0bf 8b75 0c3e 825a c93f
00000020: 3a3c f3aa b191 c43f 262f 90c6 6389 b83f
00000030: ce26 1845 e9f6 963f b0a9 3ea1 1e4b b2bf
00000040: 9e7a e7bc 8564 a83f e73a 811f 45b4 aebf
00000050: 0b7f 9278 dcd4 bb3f b010 f44f a20c 7ebf
00000060: 0899 c493 7d81 753f 6aba ffce 11dd ab3f
00000070: d5cf 5d01 a5ff a4bf fac1 c92f d868 a1bf

blocks/1/values f8 [4, 3, 3]
-0.1409283449619526 -0.018848563358566345 0.41748064892476794 0.0035251096346643656 0.04251313310495053 -0.11001489008322335 -0.05708074885124956 0.1941489416509116
-0.25915093272315154 0.18742696711757997 -0.15042212125560755 0.12394961768581253 0.12190911875841781 -0.1881265122659789 0.12514061675184573 -0.16535055213531008
0.23688502631111413 -0.07218970194319596 -0.03554334849090779 0.11915502418939262 -0.06611846887146605 -0.060614377061240884 0.1585859277275924 -0.08908285266064483
-0.004526494446311594 0.04097225733426423 0.0505206540496733 0.11574669384760888 -0.09739717868778712 0.07483541112271722 0.15728495832158926 -0.07223521373463526
0.04410111024610962 -0.027440114972119144 -0.052403254412873065 0.009135239598790333
00000000: 7472 58a4 f009 c2bf 2577 ceac 094d 93bf
00000010: 2710 76c1 00b8 da3f 2af5 0fd3 b0e0 6c3f
00000020: f029 ac08 48c4 a53f ac00 fb92 ef29 bcbf
00000030: 8c38 181b b039 adbf 6dca 785d dfd9 c83f
00000040: 7786 31cb ed95 d0bf db48 145b 9bfd c73f
00000050: cea2 b135 0841 c3bf ccf0 4f82 29bb bf3f
00000060: 40ce 269e 6f35 bf3f adb1 d890 8714 c8bf
00000070: 74db 2c94 9b04 c03f 42fa e5f6 342a c5bf
00000080: fe8b 75a0 3f52 ce3f 483a f438 067b b2bf
00000090: 00b2 b7de bc32 a2bf f12a 0c94 f180 be3f
000000a0: 24ec 76d5 23ed b0bf 6677 4afe d808 afbf
000000b0: ec10 992e 8b4c c43f ced5 cf42 22ce b6bf
000000c0: 8487 cc99 5f8a 72bf 0f82 96d2 50fa a43f
000000d0: cded d4d9 d7dd a93f 2413 b248 93a1 bd3f
000000e0: 7bcc 2f81 05ef b8bf 32d3 5adb 6928 b33f
000000f0: eb6c 12dc e921 c43f b81d 9cc8 017e b2bf
00000100: 8edb 72b4 6b94 a63f d66b 9df1 4219 9cbf
00000110: 0e84 d06f 99d4 aabf 2c1e 8b1a 7fb5 823f

blocks/2/values f8 [4, 5, 3]
0.16412598556724556 -0.23531789039951392 -0.2213275106920576 -0.3211341419250383 0.3028113619696563 -0.0885540578480679 0.15431064704911387 -0.09544349875812197
0.09467193053348326 0.10652330865478055 -0.05478278119281351 0.27098839196703817 -0.005418240591816124 0.09614501656776996 0.5047931430197492 -0.017036887873026995
0.0031444100602014352 -0.02323704684731795 0.06579616017692312 -0.032550984084325316 -0.02988720767209833 0.029078872358688227 -0.026964845081677614 0.029378796549327957
-0.0687524453315332 0.10825094312588986 -0.09351968076995415 0.028291237165540856 -0.10543940849572003 0.043700611460335104 0.010940000225823239 -0.016308229586123324
0.02389561348111608 0.0461146705324591 -0.08271612262395271 0.06785538365409446 -0.015246245401229565 -0.0016692893433959918 -0.02086956834946188 0.0075310154109708115
0.054754705371800896 0.008536103608692069 -0.0815329104061777 0.15278541511443583 -0.11771267661744135 -0.05732023364326301 0.09611944374588823 -0.042846569221876595
0.0022005495477408032 0.026468892149278413 -0.07148298390651477 -0.031148511733951282 0.0429003041226836 -0.020939997702985227 -0.02618177265800409 0.028838338142089547
-0.03723580568989897 -0.020278573796661818 0.046165774119818564 -0.01412947740040754
00000000: f4b0 378e 1402 c53f f1fd b689 e51e cebf
00000010: 3151 10ba 7554 ccbf aa9c 4c37 768d d4bf
00000020: c214 21e8 4261 d33f ffb2 628e 7aab b6bf
00000030: cb11 4087 73c0 c33f e82d c831 fc6e b8bf
00000040: 0b91 7d6d 6b3c b83f 601a ef8e 1c45 bb3f
00000050: 4bd0 361b 7d0c acbf 0c05 46b2 df57 d13f
00000060: cba2 4ce2 6f31 76bf affa d4b5 f59c b83f
00000070: d879 10f3 4327 e03f 5309 f630 1e72 91bf
00000080: 72fe f54b 4ec2 693f f834 0fd1 73cb 97bf
00000090: 078a 2964 04d8 b03f ce88 30c8 85aa a0bf
000000a0: abe9 148e c09a 9ebf a1f7 2317 dac6 9d3f
000000b0: 9dee 111f ac9c 9bbf c034 80a9 7915 9e3f
000000c0: f50d 38a0 c299 b1bf 65a2 7c74 55b6 bb3f
000000d0: d476 70e2 e7f0 b7bf 08b9 8ec9 60f8 9c3f
000000e0: 24de 32bb 13fe babf 801e 1332 ed5f a63f
000000f0: 5751 81f9 b567 863f 6088 e9c2 1ab3 90bf
00000100: f24f ad79 1778 983f 00ff 9a93 579c a73f
00000110: db94 8541 e22c b5bf dee0 a66d f85e b13f
00000120: 4ea0 146b 6c39 8fbf eaee cbc8 8159 5bbf
00000130: e898 2b06 d55e 95bf 9c29 558e d7d8 7e3f
00000140: fa7c bf09 cf08 ac3f c642 ad6e 607b 813f
00000150: df02 be3f 57df b4bf de73 9cf4 788e c33f
00000160: 4983 6500 6b22 bebf a235 cbe1 1359 adbf
00000170: 19f7 65ab 489b b83f 7386 1b4b fcef a5bf
00000180: 979f e70a e306 623f 07ec 9148 a91a 9b3f
00000190: 7156 1976 b54c b2bf 2196 dd3c 65e5 9fbf
000001a0: da08 6456 07f7 a53f d423 4075 4b71 95bf
000001b0: 910d 4505 65cf 9abf b6da c31c cc87 9d3f
000001c0: a64d 5b4f 9210 a3bf d192 100d e8c3 94bf
000001d0: ac0a 1454 0aa3 a73f 9f2b c15a eaef 8cbf

blocks/3/values f8 [4, 7, 2]
-0.08095175965268761 0.1315024204723033 0.061178704531278195 -0.09355359908559126 -0.018600570726291576 0.04266245685781451 0.03946902693290984 0.009724493084479473
-0.014297939733998514 0.06548041140635595 0.028567788054961917 0.09079426174790145 0.1343694643927052 -0.13540672551989766 -0.02944229731449923 0.05532741251002177
-0.03696818293654219 0.06736300093483609 0.0477851062791665 -0.027798602989963568 -0.06005520887437808 0.12755305342867967 0.019248823036501914 -0.044275507108966036
-0.1231220012524314 0.22978509191690014 0.124435670417694 -0.19106563655934317 -0.011908836349752186 0.013470730992924927 0.02376178219648991 -0.03572737147349683
0.015200959276785064 -0.009351861781425679 0.032987482946655385 -0.03208743451263868 -0.0471758661347167 0.04045148396617604 0.02569623022269276 -0.0173591358098776
-0.023448312646825738 0.04611959743464329 -0.009254810984027573 0.01198388002752679 -0.020135831233262923 0.0655982538559418 0.009486841038599186 0.016404898093909787
-0.04052334824074249 0.08601965036434271 0.003115730833903121 -0.021414135369527847 -0.03329150042936262 0.051644811215656276 -0.02209412945804347 0.029489711473642027
00000000: de0e 4328 41b9 b4bf 3bfe a241 12d5 c03f
00000010: 45d3 58ae d052 af3f d9e6 7ef0 20f3 b7bf
00000020: 534f d32b 070c 93bf 6951 f181 dad7 a53f
00000030: 1a7a c3c7 4835 a43f 5ce6 245e 6fea 833f
00000040: c22c 76fc 3c48 8dbf 37d8 8401 53c3 b03f
00000050: 7315 a9cd df40 9d3f c427 dff0 4a3e b73f
00000060: 02e8 92c3 0433 c13f b119 e2f0 0155 c1bf
00000070: 86eb 5620 1f26 9ebf 780e 9be6 df53 ac3f
00000080: f8f4 6861 7eed a2bf e3bc f99d b33e b13f
00000090: 3ae9 6819 4a77 a83f 1293 ddaa 3c77 9cbf
000000a0: 4eca 236c 8ebf aebf 5695 7d90 a853 c03f
000000b0: a98b b6a5 f6b5 933f 66f9 177e 47ab a6bf
000000c0: 7d19 cc68 ec84 bfbf b51a 720f 9969 cd3f
000000d0: 495b e61e 04db bf3f e4b5 34ba d674 c8bf
000000e0: 15ac 3ef5 a863 88bf 72e8 8ae8 8a96 8b3f
000000f0: b6e2 b635 0255 983f f4f6 19a8 db4a a2bf
00000100: a665 b137 ae21 8f3f 8940 10a4 1127 83bf
00000110: f9d1 dd40 bce3 a03f 584b b0a3 c36d a0bf
00000120: d10c 6b64 6f27 a8bf c035 6b91 0eb6 a43f
00000130: 6670 bfd1 1c50 9a3f a669 5ce2 97c6 91bf
00000140: d2a5 db9f d502 98bf 1a7a 5fe5 fc9c a73f
00000150: 7a75 0eb4 2ff4 82bf 311b 6126 018b 883f
00000160: 86a1 7fc2 7c9e 94bf eb68 fc12 0ccb b03f
00000170: 366b 0640 d66d 833f c5ef 3a13 72cc 903f
00000180: 9739 d6ee 79bf a4bf 23d2 2041 6205 b63f
00000190: b9b1 1c41 2986 693f be42 564c 96ed 95bf
000001a0: 4663 2863 950b a1bf 27d2 5b4e 3071 aa3f
000001b0: 04d4 d2ed d79f 96bf 6b1d 6409 8d32 9e3f

blocks/4/values f8 [4, 9, 1]
-0.05083942606390732 0.0019288837518148863 -0.01842871067305355 -0.044992132142888296 0.06570604445742935 0.016043295577673134 -0.0016944704362642955 -0.11589622680748883
-0.038269152214635664 0.0294273058927124 0.030319552016071276 0.04174246606824151 0.12413482847534654 0.08881442266467275 -0.010533560291000497 4.2842489223587206e-05
-0.005520568875575001 0.00409402770192128 0.012321549654712414 0.021213188302896764 -0.020767970100734744 0.001321258938502305 -0.004336466674562692 0.013268800215410983
-0.02309955024756654 0.025783912706815213 0.02534790415361704 0.006869015004897294 -0.009722085846921039 -0.004224488288564962 0.0072561206660731944 -0.01959734902554143
-0.03234173322231991 0.016704377020634348 -0.009035398491551955 0.000843889062842441
00000000: dc72 9510 a007 aabf 1bea 6f28 539a 5f3f
00000010: aac4 97d6 f9de 92bf 7b14 4370 3509 a7bf
00000020: 411c 1880 1cd2 b03f ddfe 4d57 a76d 903f
00000030: d018 e6c6 1fc3 5bbf d332 de07 60ab bdbf
00000040: 3f3e 6aaa 0398 a3bf 4ba2 ac11 3122 9e3f
00000050: be84 5ab1 160c 9f3f 4127 3cbd 445f a53f
00000060: 729f 98d4 4cc7 bf3f 1f05 c2c0 8abc b63f
00000070: 3fad ae87 9e92 85bf 657c 83b8 3876 063f
00000080: bc20 6a6c bc9c 76bf 2a31 6b31 e6c4 703f
00000090: f29a 6c66 0a3c 893f 82f2 04f8 e8b8 953f
000000a0: a63f 8ce1 3244 95bf aceb 8bfb c2a5 553f
000000b0: 1d51 c268 1dc3 71bf 3bd9 db37 ac2c 8b3f
000000c0: ae61 7693 68a7 97bf 99d1 5a17 1967 9a3f
000000d0: 309d 720d cdf4 993f cd09 d42c af22 7c3f
000000e0: c868 1746 2ce9 83bf 30e4 aa70 b24d 71bf
000000f0: 984a 4e0f 98b8 7d3f 7cab 9cd4 5311 94bf
00000100: 7ebd f87c 188f a0bf 48c4 03c4 f31a 913f
00000110: aa68 38a8 2681 82bf 09fa 92f6 0da7 4b3f

blocks/5/values f8 [4, 1, 10]
-0.019996972326671122 0.058223728323058714 -0.08193754929881639 0.1401188029214863 -0.1469626506144503 0.169881983588986 -0.18750288762649586 0.10302629662065745
0.10315225663198514 -0.07066079555722815 0.03341549172222652 -0.0875568130833801 0.13216857195615975 -0.19066300715277418 0.23104795654377114 -0.29038811692168853
0.35641134290074333 -0.4239964094241337 0.3455402108710435 -0.10193606322334729 0.022943328274585943 -0.05712704426112053 0.08206403444090445 -0.11249804574119815
0.12374969932511376 -0.14661185626383885 0.16818485709604117 -0.1775104080021039 0.13997658642811137 -0.03720284926939696 -0.025702325035378157 0.07356338278009729
-0.12006120417609743 0.18166799010950785 -0.2251622865881402 0.2759297323346384 -0.2760512168062752 0.21640823167638942 -0.20703420540391676 0.08712403465889713
00000000: 8cf5 a518 167a 94bf 0759 ff21 80cf ad3f
00000010: 9284 8df6 dbf9 b4bf 2d1d 0db6 69ef c13f
00000020: 56af 0f11 accf c2bf f1de d85d b1be c53f
00000030: 5674 2139 1800 c8bf b11c 9d6e ee5f ba3f
00000040: a133 beb0 2f68 ba3f 3813 076e d316 b2bf
00000050: a8e1 40d8 d51b a13f ad2f bc90 1f6a b6bf
00000060: 5d2c 0e57 e6ea c03f 609b 233a a567 c8bf
00000070: 52e1 94bc fa92 cd3f e2d7 540a b895 d2bf
00000080: 17a8 6b85 71cf d63f f346 06d6 c122 dbbf
00000090: 8838 49b0 541d d63f a3c7 d359 7b18 babf
000000a0: 0e28 67b2 747e 973f 0827 a385 c13f adbf
000000b0: 0dfc 1908 2602 b53f 1086 5203 accc bcbf
000000c0: 14bf 7d6f 0fae bf3f 0bf5 ed63 2dc4 c2bf
000000d0: 9978 74d6 1487 c53f 9fc9 883a a9b8 c6bf
000000e0: e30c 75b6 c0ea c13f 1c33 dc79 400c a3bf
000000f0: 1c1b d5d5 b551 9abf f540 39c3 0cd5 b23f
00000100: 5768 74c1 54bc bebf b40c 208e e540 c73f
00000110: 6825 9828 1ed2 ccbf 79c3 172e d5a8 d13f
00000120: a40d 0db9 d2aa d1bf fb50 d1d2 43b3 cb3f
00000130: 527c aeca 1880 cabf 7537 8ebf c24d b63f

blocks/6/values f8 [4, 3, 7]
-0.008370129849278823 -0.004328728174683139 -0.024819777174113256 0.04393898543705006 0.016700813034920194 -0.10803763722048033 0.03477177058582094 0.009389639661270243
-0.04736299652870324 0.03893543910620658 -0.04165445342217301 0.12160418179356448 -0.13106291707204662 0.042508761517210926 0.0018176453257486083 -0.05842649230872152
0.000701485389618034 -0.015900796569260554 0.18609686285038612 0.13527438965975333 -0.08827099340474401 -0.006994605889989824 -0.013030475021007747 -0.024866577910448058
0.039855257816487306 0.027850414243601695 0.026617848981819847 -0.06827177968489177 0.027602624437227316 -0.0540371234767155 0.10160800580899115 -0.1288500866822004
0.11591502620289044 -0.10425571692577337 0.059499214620321685 0.00984222479910206 -0.0046737679712085915 0.03817558043159994 -0.05651377395457194 0.01403011847082998
-0.009836416561266307 0.038800685213455956 -0.0056851670127916355 -0.01158070474012235 -0.020736872834806765 0.031370234011319664 0.03492316904212643 0.004824260341885066
-0.015934206708372818 -0.024051954003441917 0.07460933730188032 -0.09033211139627702 0.11401506337341845 -0.18653553331892442 0.11833037785179336 -0.05148781722469574
-0.03730945115705796 0.05840118058695214 -0.14009850869335233 0.18454735963174695 -0.15284256313172506 0.160562178778287 -0.06238771545229374 -0.024143393997755683
0.05531674842280306 -0.09283110955867782 0.12728965966161226 -0.14572104463891003 0.12529825151794294 -0.07288186185691668 0.0012102567337260257 0.050905038370601396
-0.00019620599366331848 -0.006118342716813496 -0.12894913447035003 0.05259235432786202 0.008051282843516819 -0.018890587364134605 -0.04539476475627386 -0.06541506406403148
0.10337675592607638 0.10750389272524405 -0.007815101453798878 -0.009109286482968777
00000000: 6337 bacf 5b24 81bf 27bb 181f 00bb 71bf
00000010: cdfc 060d 5b6a 99bf 0a6f f1b2 2b7f a63f
00000020: bad4 3497 041a 913f 015d 99c6 5aa8 bbbf
00000030: 72f0 fa02 9bcd a13f f38b 211a e03a 833f
00000040: 403f 4372 f63f a8bf 53ad 3b8b 58ef a33f
00000050: 82aa 5c86 bb53 a5bf f135 dc9f 7321 bf3f
00000060: 7b7a 456f abc6 c0bf 8d0f 0559 b5c3 a53f
00000070: a054 b5ce c1c7 5d3f 6c35 5fc3 13ea adbf
00000080: 00cd 4c67 7cfc 463f f935 fb64 4c48 90bf
00000090: 4a51 eaa1 05d2 c73f a399 c9d3 ab50 c13f
000000a0: cada db85 ed98 b6bf a611 bc38 60a6 7cbf
000000b0: 8657 88c0 b8af 8abf 5224 8ecb 9f76 99bf
000000c0: e979 ca89 e867 a43f a3df 6ca9 d184 9c3f
000000d0: 0096 779b b541 9b3f f37f fc64 427a b1bf
000000e0: 2c76 f7c4 dc43 9c3f ad6e 34fc c0aa abbf
000000f0: fc1d f675 fb02 ba3f 2f83 31de 287e c0bf
00000100: ab09 a86e 9bac bd3f ce02 9eae 80b0 babf
00000110: bd2a dd59 ae76 ae3f 5962 0e0d 2928 843f
00000120: 2cef 5d09 cd24 73bf bc48 ebea bf8b a33f
00000130: d41c d195 5fef acbf e804 ee9f d2bb 8c3f
00000140: f515 867b 1d25 84bf 05be 1bf4 aedd a33f
00000150: 729b 4666 5449 77bf 60d7 fce0 9fb7 87bf
00000160: 4754 96fa 0b3c 95bf 1000 4b62 c20f a03f
00000170: ae35 d119 73e1 a13f d823 5586 9ac2 733f
00000180: 12f8 cc82 0e51 90bf 5512 664f 13a1 98bf
00000190: 3e14 b0f7 9819 b33f 75c3 3958 0120 b7bf
000001a0: edb0 7058 1730 bd3f 06c7 9277 65e0 c7bf
000001b0: a92c ff4e e64a be3f 7eb7 3e76 9c5c aabf
000001c0: 7e40 1a71 391a a3bf 5666 5671 c2e6 ad3f
000001d0: 7e35 8778 bfee c1bf 843b 1775 3f9f c73f
000001e0: a435 0b59 5890 c3bf 42e3 692d 4d8d c43f
000001f0: d45a 145b 48f1 afbf e409 8abe 0bb9 98bf
00000200: 6b43 cb12 7a52 ac3f 321d 9b93 c7c3 b7bf
00000210: d2cb ae0e 074b c03f d512 88b8 fca6 c2bf
00000220: 74fd 41ea c509 c03f dfa4 25bd 62a8 b2bf
00000230: a7dc d445 2fd4 533f 28b8 01a6 3910 aa3f
00000240: 54bf f1a6 94b7 29bf 40ae fd1d 8c0f 79bf
00000250: 83e6 b2bd 6781 c0bf 1033 b793 62ed aa3f
00000260: 68ae 07e4 307d 803f 9a89 b9db 0d58 93bf
00000270: c95b 138c fb3d a7bf 551d d2a8 0abf b0bf
00000280: 857b de29 e676 ba3f ee96 7207 6085 bb3f
00000290: a09b 4529 5d01 80bf a422 46bc e3a7 82bf

blocks/7/values f8 [4, 5, 5]
-0.053424996924572976 0.0905099840662232 -0.18586942800577919 0.21378613953076242 -0.13857628424714688 -0.08617229173399696 -0.13221823670165486 -0.24102095788769182
0.045323363663633605 -0.03130128106187395 -0.002706507426525107 -0.015211956325161723 -0.026846814987342975 -0.06262658762097176 0.03449506310746291 0.15393260953579038
0.2542354729365808 0.46555833026860116 -0.03490943911483627 0.05223330802259207 -0.011448607229511762 0.0851765368847027 -0.024974669993786423 0.07968330592927968
-0.04924238544712542 -0.027010048325867633 -0.10172761257255936 -0.0682694654614283 0.0027798956123020317 -0.0426925265886193 0.03708512317849934 -0.027055429196394837
0.1351471396571647 -0.023176309700589988 -0.0010364514744725696 0.026320986618447367 0.01291878079521816 0.07021910113888179 -0.09488078449875927 0.03162196371616813
0.005027272361351005 -0.042881254033141074 0.034180887687564235 0.018738220818841227 -0.060750822704890656 0.015309670023022926 -0.042431158519864495 0.06762308622213589
-0.016985023355928257 -0.03358638553777239 -0.06815609304750372 -0.26496549319275614 -0.1353324847669841 -0.06802084460863334 0.051554002481985634 -0.028455353831650227
-0.05349431621462275 -0.08621313027945421 0.03198274064767646 -0.009194065832131488 0.01957104460087017 -0.06700276509783139 0.07581528074396875 -0.0953489918283787
0.07759666642430887 -0.012634278482004593 -0.11661925813897882 -0.01147226102473307 -0.05420534130683491 0.037744544790166784 -0.02098833761127474 -0.052454474655253804
-0.012745098517874122 0.013171372567620758 -0.027165874027886276 -0.049369411691016815 0.2230775095896126 -0.24906738361722575 0.15455294048490753 -0.11275763624000577
0.030007575993628216 -0.011723332550710256 0.1423021632171596 -0.0008489044135770436 0.015751497632200434 0.01767885320191584 -0.01733252474218229 0.07856871922092468
-0.016229917076763075 0.006673184025500627 0.01724718746514806 0.15139415465449366 -0.0018152367379948298 -0.0013833682627796275 0.034534462227878496 -0.011605176667321845
0.0980421503089993 -0.10107070033487718 -0.00404843940802109 0.02310251472078253
00000000: 18ee 286d 855a abbf 05a2 868d a92b b73f
00000010: d336 4ec5 91ca c7bf 34b5 cf1e 585d cb3f
00000020: 75dd 6b20 debc c1bf a6a2 d126 630f b6bf
00000030: 27c1 48f5 86ec c0bf 079d e355 c6d9 cebf
00000040: b92b 5cb9 9f34 a73f 56a1 f7b4 b806 a0bf
00000050: e70b 441c f52b 66bf 4ce3 6537 7227 8fbf
00000060: 9e56 7d41 bb7d 9bbf e230 b1c9 4b08 b0bf
00000070: 770b d73f 56a9 a13f 8d40 df51 10b4 c33f
00000080: acb9 6fdc 6445 d03f 9a93 b82a b5cb dd3f
00000090: 35cd a366 a6df a1bf 4017 70fb 52be aa3f
000000a0: 2b82 150d 5e72 87bf 066c 4e28 21ce b53f
000000b0: 6925 68bb f592 99bf 13e0 0009 2066 b43f
000000c0: 8c15 2546 4c36 a9bf 2455 e4a8 85a8 9bbf
000000d0: c86b 1921 d20a babf 77e4 7891 1b7a b1bf
000000e0: 9d58 b717 ddc5 663f 5ca5 f67a cbdb a5bf
000000f0: d287 703e d2fc a23f 28a0 4f1e 6bb4 9bbf
00000100: 1bdc 7c60 804c c13f 12f2 d2d0 87bb 97bf
00000110: 10b9 f34b 31fb 50bf d813 e682 e3f3 9a3f
00000120: d040 2868 2975 8a3f f32d f206 e1f9 b13f
00000130: 09e5 706a 1b4a b8bf 4413 fe07 c130 a03f
00000140: 61d6 1426 7a97 743f 371c 5e1f 88f4 a5bf
00000150: 625d 8845 2880 a13f db99 68b6 1c30 933f
00000160: 94f8 7159 bb1a afbf a7d1 7d20 ad5a 8f3f
00000170: 0632 596c 89b9 a5bf 6256 c71f bf4f b13f
00000180: 6b8f 579f 8564 91bf 327f f316 3c32 a1bf
00000190: 6a83 a97e ad72 b1bf a135 f5d3 31f5 d0bf
000001a0: 078f 142a 9352 c1bf 3856 0a67 d069 b1bf
000001b0: 04ac 4645 4965 aa3f e584 6978 6623 9dbf
000001c0: d0ce 5365 9b63 abbf 203a 094f 1012 b6bf
000001d0: 5d87 3cb2 0a60 a03f 97bb 87a0 56d4 82bf
000001e0: 9084 0992 6e0a 943f a535 d6dc 1727 b1bf
000001f0: 7318 5557 a168 b33f 6d05 9ca1 ca68 b8bf
00000200: e22e 9208 60dd b33f 7b31 1c27 00e0 89bf
00000210: 0b6b ca7b c2da bdbf 769a 4ccf c47e 87bf
00000220: 08dd 5c70 cdc0 abbf 04cd f3c2 4053 a33f
00000230: c523 8d7e f77d 95bf 85aa 581a 50db aabf
00000240: 146d 8c2a 1a1a 8abf 69f3 5eb3 97f9 8a3f
00000250: 9e6f 11f2 5ed1 9bbf 7e77 4591 f246 a9bf
00000260: ac8b 14c8 cd8d cc3f 5271 91a5 70e1 cfbf
00000270: 6010 7108 64c8 c33f 3f6c 0638 afdd bcbf
00000280: f876 1956 4eba 9e3f 8f53 3e0f 6702 88bf
00000290: fc78 9510 f536 c23f f295 cc58 20d1 4bbf
000002a0: 48f6 c51c 2921 903f 7801 55c1 671a 923f
000002b0: 84fa b20b 9ebf 91bf d8df 8a5f 141d b43f
000002c0: 0ff7 3e4c 939e 90bf 5f3b 6532 5755 7b3f
000002d0: 7973 7128 3fa9 913f 87f7 8537 e260 c33f
000002e0: 00db 259b a7bd 5dbf 010a 9b5c 44aa 56bf
000002f0: 4216 b543 80ae a13f b8eb 0072 74c4 87bf
00000300: 37e8 3455 4a19 b93f 3fa9 85f8 c4df b9bf
00000310: d073 b7ad 1895 70bf 6677 b984 2fa8 973f

blocks/8/values f8 [4, 7, 3]
0.055569891488835274 -0.050547359015393145 0.07530582497252075 0.004198768855028654 0.03660979194455912 0.05480703498549248 -0.005271888706581358 -0.022913353068766445
-0.015702380484366348 -0.01573382318904599 0.07628217779703653 0.0039031682744912932 -0.014806060424289346 0.045515007132230924 0.008833785994072904 -0.002810713876366336
0.020484771234841034 0.03292519391048482 -0.05951722486728218 0.06018278757418699 -0.07552024740809025 0.01789777278883593 -0.06374375027791672 0.011237046202068028
0.007244830176245746 0.008623826419738977 -0.0054652748381324254 -0.015844145824323808 0.007238055396490856 0.0019694767881102623 -0.0016696738071026978 -0.03966399049076867
0.024608297808550724 0.016319978424915976 0.04835446670147777 -0.012446142021445984 -0.017243185016244854 0.11146865818520345 -0.04728506953968808 0.03989414642406685
0.040936032364748784 0.02182695381059758 0.008335211705740593 -0.030092620757471183 0.02111773279644427 -0.00034766361681690333 -0.012083910667573017 -0.026160254843682514
0.0021312349857393656 -0.037380899160628894 -0.024421147075024987 -0.027574150994009953 0.010215148273216599 -0.030947836854511614 0.012737564427011901 -0.018802953469259365
0.010443333550770682 0.017275930649921667 -0.011149686311070963 0.04082897820747645 -0.009974320250609533 0.05759337314609182 -0.001072831288509345 -0.01654870460364547
0.02408639488551058 0.06468065737457705 -0.014550643722176652 -0.05407911193428194 0.009275248240124573 0.02032218115234424 -0.008952229248782943 -0.00901578699498451
-0.0169988520797724 -0.041186964031794566 0.04001008172816059 0.009918525897726108 -0.01754693181442119 -0.0514568866405166 -0.012724176062600298 0.03855999091035907
0.01131441390536532 -0.007217606511377626 0.03860943636699808 -0.0907005471917881
00000000: 2e73 2c25 a873 ac3f e895 bdeb 57e1 a9bf
00000010: 048d 7417 3e47 b33f e429 a76e ba32 713f
00000020: 7b01 3bc6 84be a23f 35f3 b4ed aa0f ac3f
00000030: 88a2 53d9 f997 75bf 4bc8 4918 9976 97bf
00000040: 824b 99ea 4814 90bf 33e9 2600 871c 90bf
00000050: faea e792 3a87 b33f a906 df82 89f9 6f3f
00000060: 467b 70ca a352 8ebf 1564 3836 be4d a73f
00000070: b824 8eaf 7217 823f 0751 ad85 7e06 67bf
00000080: fc27 14ba f5f9 943f 18b7 1e2e 92db a03f
00000090: 4112 b5ac 0a79 aebf 4895 d340 47d0 ae3f
000000a0: 2fb7 cd80 4b55 b3bf d378 3233 cb53 923f
000000b0: 7b9e c4aa 8251 b0bf 4f3d 88cf 7203 873f
000000c0: deb6 c04a c1ac 7d3f 2666 8363 5ea9 813f
000000d0: 8a4a 188b c162 76bf 2017 98a0 7239 90bf
000000e0: 3adb 6eb3 a6a5 7d3f 7030 a5cc 4a22 603f
000000f0: f327 6099 1e5b 5bbf 9631 f9ab d64e a4bf
00000100: cf1a 31e9 ea32 993f 88fe 6c36 2fb6 903f
00000110: 4b5d 32aa eac1 a83f 3440 8ce7 5c7d 89bf
00000120: 3604 e58e 32a8 91bf 3738 6fc1 3589 bc3f
00000130: e72a 86a6 bf35 a8bf 6feb 626c 016d a43f
00000140: a61c 7850 91f5 a43f 12ba 2613 ce59 963f
00000150: c47d 732d 0d12 813f 385f 0498 99d0 9ebf
00000160: 07d4 e70e e39f 953f 28ae 3edd d3c8 36bf
00000170: 1a06 0009 73bf 88bf 72d9 08fc c0c9 9abf
00000180: 8bfd 0a12 8675 613f ccaa c7d6 9623 a3bf
00000190: a778 1270 db01 99bf 41dc eff2 653c 9cbf
000001a0: 52dc 0efe adeb 843f 5a33 b02c cab0 9fbf
000001b0: 3e5d 28f5 2616 8a3f 50ed dfd8 1441 93bf
000001c0: 5286 7e80 5063 853f 70f6 9814 c8b0 913f
000001d0: 8e9e 8890 a5d5 86bf a1aa 422c 89e7 a43f
000001e0: 8ba7 359a 6a6d 84bf a2f0 41ec e07c ad3f
000001f0: 62e8 16d3 c793 51bf 8a5a 41c4 24f2 90bf
00000200: 044b 3f99 1aaa 983f ff8a 1b5c e98e b03f
00000210: cf45 6157 bacc 8dbf f015 4fe2 41b0 abbf
00000220: f034 d4be e6fe 823f 4f17 bb7d 56cf 943f
00000230: 0f6d ccde 8b55 82bf 004c 5472 de76 82bf
00000240: 4a37 02a7 2568 91bf 0180 132f 7516 a5bf
00000250: e4c2 1091 337c a43f f593 d702 2a50 843f
00000260: b1fe 26a9 d2f7 91bf 8dcc 8c9a 8e58 aabf
00000270: a595 7500 220f 8abf dac0 c997 22be a33f
00000280: 685b 93ed 022c 873f 248b bf7e 3590 7dbf
00000290: aec8 06b5 9dc4 a33f 5004 ebab 2638 b7bf

blocks/9/values f8 [4, 9, 2]
-0.0020240370502792927 -0.026285403328303147 -0.015038894270525257 -0.011742089553672036 0.008394590397938542 -0.029342423931729304 0.024216324441618073 -0.05118632327165977
0.02027859880011614 -0.011087636012882495 -0.04525151601108031 0.02764170983883911 -0.036680044251806154 0.017694788144092196 0.00618358787421414 0.0032284452769140402
0.0029769660705359284 0.0008955870040572196 -0.01884947650567937 -0.008194610015091211 -0.015682604988381015 0.014765894751698615 -0.01756004806949859 0.018435636276275844
-0.0012603370340007287 0.05382695526641563 0.010029933166704098 0.003969332134436548 0.016987062899725826 -0.0473815601821648 0.009444792255116382 0.04483561765689535
0.01113588401977805 0.002212789170084801 -0.000736292570228363 0.009472884280652797 -0.01818514227822742 -0.0012094822681546888 -0.004553082164227427 0.028048575340631838
0.0009369033222008079 0.023754821952004207 -0.01142200972751997 0.0005558283118686433 0.012695470735874032 -0.03661799712458759 -0.008510464381553501 -0.0026659311036027573
-0.003748822981374806 0.02511535156237628 0.008069796572568325 -0.011534389629995707 0.0033815003255232533 -0.022395321260900165 0.01831105640704248 0.012701119361593731
0.006576604895228904 -0.02663211491542258 0.032839031179336 -0.07118619936821727 -0.020324321422563157 0.035889667907543554 -0.01112676023638254 0.03442278491913779
0.021125614658694072 -0.04605038495474655 0.013109542211835289 -0.01565360225437427 -0.01443530271868075 -0.0009638764650853974 -0.006466699817641306 0.008241865312674434
00000000: cd9b fa9d b694 60bf 5001 a18e 8fea 9abf
00000010: ebb0 7a38 b6cc 8ebf 3032 f594 3c0c 88bf
00000020: fb99 c7d9 2e31 813f ce46 b0bc f00b 9ebf
00000030: 8c38 0606 2acc 983f 1695 e800 1835 aabf
00000040: b5ed 9eba e9c3 943f a6b2 8550 1db5 86bf
00000050: 6a59 b9ea 342b a7bf cca7 0dbf 1b4e 9c3f
00000060: f065 f40c bac7 a2bf 5fd9 8d21 951e 923f
00000070: 852b 113b f653 793f 3860 335c 8a72 6a3f
00000080: 6f90 417d 2663 683f a0af 5272 ba58 4d3f
00000090: a2f0 8df4 464d 93bf a875 25f0 55c8 80bf
000000a0: db2b 2ace 190f 90bf ec12 70d8 943d 8e3f
000000b0: 76e0 b2e0 42fb 91bf 79db 8c9b cae0 923f
000000c0: ac3b f395 3ca6 54bf b967 06e9 348f ab3f
000000d0: c7db 74d7 928a 843f 2c16 457b 2542 703f
000000e0: 1a0b 707e 0e65 913f c4ea d456 6542 a8bf
000000f0: f16e d38e ca57 833f fe8c 10af b1f4 a63f
00000100: be7c 6a0d 69ce 863f c266 ca23 8e20 623f
00000110: f7a0 3441 7820 48bf e23b 7901 8566 833f
00000120: 1eb0 6e3d 209f 92bf b732 5bb2 efd0 53bf
00000130: e499 dcaf 40a6 72bf b54d 2607 c4b8 9c3f
00000140: e84d 6e90 50b3 4e3f a8e8 9f1d 2f53 983f
00000150: 8fd4 df31 6c64 87bf c02c f935 a036 423f
00000160: aa77 f13c 1500 8a3f 52b4 3018 98bf a2bf
00000170: 1d55 8a31 ef6d 81bf 9659 e8dc dcd6 65bf
00000180: 0edb 4f03 dab5 6ebf 340f 5ab6 d6b7 993f
00000190: 359b eac2 e586 803f 64d5 eb91 579f 87bf
000001a0: 78b7 e729 85b3 6b3f 228e 9891 ccee 96bf
000001b0: 299f b131 22c0 923f dcbe 3e62 0b03 8a3f
000001c0: df7b 19ef 11f0 7a3f 5718 57fa 7245 9bbf
000001d0: 3728 e509 47d0 a03f 1289 363e 4239 b2bf
000001e0: 680f 4b1f e6cf 94bf 00ba da6b 2160 a23f
000001f0: a106 9b7a a0c9 86bf 760c eefe dc9f a13f
00000200: d498 4400 f4a1 953f 0f9c b282 ea93 a7bf
00000210: 99dd 85f8 2cd9 8a3f 7b0f fd76 7f07 90bf
00000220: 773f ad88 4190 8dbf 4bee 8cf2 9495 4fbf
00000230: 3d56 ad83 d37c 7abf 33cb ce6f 1ce1 803f

blocks/10/values f8 [4, 11, 1]
-0.0062916292211574526 -0.011083692420632198 -0.0038558047027507573 0.014593390986467898 0.01995507748305159 0.03287101907378507 -0.031330624389806716 -0.02649167218036549
-0.004518658513640701 -0.010622974620391131 -0.01187895812281446 0.0008512985280153261 -0.013792532441764383 -0.0038891450442318674 0.0006767710584561016 0.030288349875986227
0.011916443551399425 -0.0007073321961095845 -0.009024475267507694 0.0010849888764492249 0.019628851370763627 0.012290870107635944 -0.012642086962039141 -0.003090203397893511
0.019423908298652703 -0.007340906677263172 0.0013293967436997184 0.009060552657191445 -0.0010866114538036135 0.009168204700587766 0.011007568328054797 -0.0016913257432382442
0.00023526540781192542 0.003255598441875738 0.0003714383989066451 0.00439901756094234 -0.0013116783915905544 0.008108167616478564 0.01837416476010327 0.006004602704076283
0.01009312906442441 -0.0008941479948223602 -0.011166805416112154 0.0031458653184342996
00000000: 0716 e55b 40c5 79bf 2e6c b903 0cb3 86bf
00000010: 6f73 2363 3596 6fbf 646c 32c8 23e3 8d3f
00000020: 2125 b794 1a6f 943f 5df2 d05f 78d4 a03f
00000030: 5026 3c4e 910a a0bf d72a 8606 a220 9bbf
00000040: c826 9b28 2882 72bf de83 a584 7fc1 85bf
00000050: 7730 2fc5 fe53 88bf ff76 21ab 35e5 4b3f
00000060: c794 215e 423f 8cbf e6b0 c7d8 20dc 6fbf
00000070: 48b0 0ec8 2a2d 463f b22d abc0 e803 9f3f
00000080: 0000 b4fa a567 883f 3c52 2953 882d 47bf
00000090: f49c 1991 6c7b 82bf 7377 6aef c5c6 513f
000000a0: 7b2a c8ea 9519 943f 34a4 36a9 f42b 893f
000000b0: 71f0 7030 18e4 89bf 83a8 0551 a050 69bf
000000c0: c0e4 9c6b dce3 933f 021c a1a1 7f11 7ebf
000000d0: 6906 68e2 e4c7 553f 1345 c5ca 568e 823f
000000e0: de39 152a 94cd 51bf bf03 d19a c7c6 823f
000000f0: 6ee1 d1cf 228b 863f 8907 4330 efb5 5bbf
00000100: 905e 0177 32d6 2e3f 15c7 c61a 7cab 6a3f
00000110: f8b0 99c6 b357 383f 31c0 f048 b404 723f
00000120: 9c34 ddf2 937d 55bf 3133 f2d5 039b 803f
00000130: 4c9f f152 add0 923f d2e9 d443 4898 783f
00000140: 0cd4 f7d9 b4ab 843f 7640 a132 a84c 4dbf
00000150: c404 8140 9fde 86bf f524 2195 5bc5 693f
